[Thu, 14 Dec 2023 23:08:59 INFO] .lo * src vocab size = 12945
[Thu, 14 Dec 2023 23:08:59 INFO] .vi * tgt vocab size = 12179
[Thu, 14 Dec 2023 23:08:59 INFO] Building model...
[Thu, 14 Dec 2023 23:09:01 INFO] Transformer(
  (encoder): Encoder(
    (embed): Embedding(12945, 512)
    (pe): PositionalEncoder(
      (dropout): Dropout(p=0.1, inplace=False)
    )
    (layers): ModuleList(
      (0): EncoderLayer(
        (norm_1): Norm()
        (norm_2): Norm()
        (attn): MultiHeadAttention(
          (q_linear): Linear(in_features=512, out_features=512, bias=True)
          (k_linear): Linear(in_features=512, out_features=512, bias=True)
          (v_linear): Linear(in_features=512, out_features=512, bias=True)
          (dropout): Dropout(p=0.1, inplace=False)
          (out): Linear(in_features=512, out_features=512, bias=True)
        )
        (ff): FeedForward(
          (linear_1): Linear(in_features=512, out_features=2048, bias=True)
          (dropout): Dropout(p=0.1, inplace=False)
          (linear_2): Linear(in_features=2048, out_features=512, bias=True)
        )
        (dropout_1): Dropout(p=0.1, inplace=False)
        (dropout_2): Dropout(p=0.1, inplace=False)
      )
      (1): EncoderLayer(
        (norm_1): Norm()
        (norm_2): Norm()
        (attn): MultiHeadAttention(
          (q_linear): Linear(in_features=512, out_features=512, bias=True)
          (k_linear): Linear(in_features=512, out_features=512, bias=True)
          (v_linear): Linear(in_features=512, out_features=512, bias=True)
          (dropout): Dropout(p=0.1, inplace=False)
          (out): Linear(in_features=512, out_features=512, bias=True)
        )
        (ff): FeedForward(
          (linear_1): Linear(in_features=512, out_features=2048, bias=True)
          (dropout): Dropout(p=0.1, inplace=False)
          (linear_2): Linear(in_features=2048, out_features=512, bias=True)
        )
        (dropout_1): Dropout(p=0.1, inplace=False)
        (dropout_2): Dropout(p=0.1, inplace=False)
      )
      (2): EncoderLayer(
        (norm_1): Norm()
        (norm_2): Norm()
        (attn): MultiHeadAttention(
          (q_linear): Linear(in_features=512, out_features=512, bias=True)
          (k_linear): Linear(in_features=512, out_features=512, bias=True)
          (v_linear): Linear(in_features=512, out_features=512, bias=True)
          (dropout): Dropout(p=0.1, inplace=False)
          (out): Linear(in_features=512, out_features=512, bias=True)
        )
        (ff): FeedForward(
          (linear_1): Linear(in_features=512, out_features=2048, bias=True)
          (dropout): Dropout(p=0.1, inplace=False)
          (linear_2): Linear(in_features=2048, out_features=512, bias=True)
        )
        (dropout_1): Dropout(p=0.1, inplace=False)
        (dropout_2): Dropout(p=0.1, inplace=False)
      )
      (3): EncoderLayer(
        (norm_1): Norm()
        (norm_2): Norm()
        (attn): MultiHeadAttention(
          (q_linear): Linear(in_features=512, out_features=512, bias=True)
          (k_linear): Linear(in_features=512, out_features=512, bias=True)
          (v_linear): Linear(in_features=512, out_features=512, bias=True)
          (dropout): Dropout(p=0.1, inplace=False)
          (out): Linear(in_features=512, out_features=512, bias=True)
        )
        (ff): FeedForward(
          (linear_1): Linear(in_features=512, out_features=2048, bias=True)
          (dropout): Dropout(p=0.1, inplace=False)
          (linear_2): Linear(in_features=2048, out_features=512, bias=True)
        )
        (dropout_1): Dropout(p=0.1, inplace=False)
        (dropout_2): Dropout(p=0.1, inplace=False)
      )
      (4): EncoderLayer(
        (norm_1): Norm()
        (norm_2): Norm()
        (attn): MultiHeadAttention(
          (q_linear): Linear(in_features=512, out_features=512, bias=True)
          (k_linear): Linear(in_features=512, out_features=512, bias=True)
          (v_linear): Linear(in_features=512, out_features=512, bias=True)
          (dropout): Dropout(p=0.1, inplace=False)
          (out): Linear(in_features=512, out_features=512, bias=True)
        )
        (ff): FeedForward(
          (linear_1): Linear(in_features=512, out_features=2048, bias=True)
          (dropout): Dropout(p=0.1, inplace=False)
          (linear_2): Linear(in_features=2048, out_features=512, bias=True)
        )
        (dropout_1): Dropout(p=0.1, inplace=False)
        (dropout_2): Dropout(p=0.1, inplace=False)
      )
      (5): EncoderLayer(
        (norm_1): Norm()
        (norm_2): Norm()
        (attn): MultiHeadAttention(
          (q_linear): Linear(in_features=512, out_features=512, bias=True)
          (k_linear): Linear(in_features=512, out_features=512, bias=True)
          (v_linear): Linear(in_features=512, out_features=512, bias=True)
          (dropout): Dropout(p=0.1, inplace=False)
          (out): Linear(in_features=512, out_features=512, bias=True)
        )
        (ff): FeedForward(
          (linear_1): Linear(in_features=512, out_features=2048, bias=True)
          (dropout): Dropout(p=0.1, inplace=False)
          (linear_2): Linear(in_features=2048, out_features=512, bias=True)
        )
        (dropout_1): Dropout(p=0.1, inplace=False)
        (dropout_2): Dropout(p=0.1, inplace=False)
      )
    )
    (norm): Norm()
  )
  (decoder): Decoder(
    (embed): Embedding(12179, 512)
    (pe): PositionalEncoder(
      (dropout): Dropout(p=0.1, inplace=False)
    )
    (layers): ModuleList(
      (0): DecoderLayer(
        (norm_1): Norm()
        (norm_2): Norm()
        (norm_3): Norm()
        (dropout_1): Dropout(p=0.1, inplace=False)
        (dropout_2): Dropout(p=0.1, inplace=False)
        (dropout_3): Dropout(p=0.1, inplace=False)
        (attn_1): MultiHeadAttention(
          (q_linear): Linear(in_features=512, out_features=512, bias=True)
          (k_linear): Linear(in_features=512, out_features=512, bias=True)
          (v_linear): Linear(in_features=512, out_features=512, bias=True)
          (dropout): Dropout(p=0.1, inplace=False)
          (out): Linear(in_features=512, out_features=512, bias=True)
        )
        (attn_2): MultiHeadAttention(
          (q_linear): Linear(in_features=512, out_features=512, bias=True)
          (k_linear): Linear(in_features=512, out_features=512, bias=True)
          (v_linear): Linear(in_features=512, out_features=512, bias=True)
          (dropout): Dropout(p=0.1, inplace=False)
          (out): Linear(in_features=512, out_features=512, bias=True)
        )
        (ff): FeedForward(
          (linear_1): Linear(in_features=512, out_features=2048, bias=True)
          (dropout): Dropout(p=0.1, inplace=False)
          (linear_2): Linear(in_features=2048, out_features=512, bias=True)
        )
      )
      (1): DecoderLayer(
        (norm_1): Norm()
        (norm_2): Norm()
        (norm_3): Norm()
        (dropout_1): Dropout(p=0.1, inplace=False)
        (dropout_2): Dropout(p=0.1, inplace=False)
        (dropout_3): Dropout(p=0.1, inplace=False)
        (attn_1): MultiHeadAttention(
          (q_linear): Linear(in_features=512, out_features=512, bias=True)
          (k_linear): Linear(in_features=512, out_features=512, bias=True)
          (v_linear): Linear(in_features=512, out_features=512, bias=True)
          (dropout): Dropout(p=0.1, inplace=False)
          (out): Linear(in_features=512, out_features=512, bias=True)
        )
        (attn_2): MultiHeadAttention(
          (q_linear): Linear(in_features=512, out_features=512, bias=True)
          (k_linear): Linear(in_features=512, out_features=512, bias=True)
          (v_linear): Linear(in_features=512, out_features=512, bias=True)
          (dropout): Dropout(p=0.1, inplace=False)
          (out): Linear(in_features=512, out_features=512, bias=True)
        )
        (ff): FeedForward(
          (linear_1): Linear(in_features=512, out_features=2048, bias=True)
          (dropout): Dropout(p=0.1, inplace=False)
          (linear_2): Linear(in_features=2048, out_features=512, bias=True)
        )
      )
      (2): DecoderLayer(
        (norm_1): Norm()
        (norm_2): Norm()
        (norm_3): Norm()
        (dropout_1): Dropout(p=0.1, inplace=False)
        (dropout_2): Dropout(p=0.1, inplace=False)
        (dropout_3): Dropout(p=0.1, inplace=False)
        (attn_1): MultiHeadAttention(
          (q_linear): Linear(in_features=512, out_features=512, bias=True)
          (k_linear): Linear(in_features=512, out_features=512, bias=True)
          (v_linear): Linear(in_features=512, out_features=512, bias=True)
          (dropout): Dropout(p=0.1, inplace=False)
          (out): Linear(in_features=512, out_features=512, bias=True)
        )
        (attn_2): MultiHeadAttention(
          (q_linear): Linear(in_features=512, out_features=512, bias=True)
          (k_linear): Linear(in_features=512, out_features=512, bias=True)
          (v_linear): Linear(in_features=512, out_features=512, bias=True)
          (dropout): Dropout(p=0.1, inplace=False)
          (out): Linear(in_features=512, out_features=512, bias=True)
        )
        (ff): FeedForward(
          (linear_1): Linear(in_features=512, out_features=2048, bias=True)
          (dropout): Dropout(p=0.1, inplace=False)
          (linear_2): Linear(in_features=2048, out_features=512, bias=True)
        )
      )
      (3): DecoderLayer(
        (norm_1): Norm()
        (norm_2): Norm()
        (norm_3): Norm()
        (dropout_1): Dropout(p=0.1, inplace=False)
        (dropout_2): Dropout(p=0.1, inplace=False)
        (dropout_3): Dropout(p=0.1, inplace=False)
        (attn_1): MultiHeadAttention(
          (q_linear): Linear(in_features=512, out_features=512, bias=True)
          (k_linear): Linear(in_features=512, out_features=512, bias=True)
          (v_linear): Linear(in_features=512, out_features=512, bias=True)
          (dropout): Dropout(p=0.1, inplace=False)
          (out): Linear(in_features=512, out_features=512, bias=True)
        )
        (attn_2): MultiHeadAttention(
          (q_linear): Linear(in_features=512, out_features=512, bias=True)
          (k_linear): Linear(in_features=512, out_features=512, bias=True)
          (v_linear): Linear(in_features=512, out_features=512, bias=True)
          (dropout): Dropout(p=0.1, inplace=False)
          (out): Linear(in_features=512, out_features=512, bias=True)
        )
        (ff): FeedForward(
          (linear_1): Linear(in_features=512, out_features=2048, bias=True)
          (dropout): Dropout(p=0.1, inplace=False)
          (linear_2): Linear(in_features=2048, out_features=512, bias=True)
        )
      )
      (4): DecoderLayer(
        (norm_1): Norm()
        (norm_2): Norm()
        (norm_3): Norm()
        (dropout_1): Dropout(p=0.1, inplace=False)
        (dropout_2): Dropout(p=0.1, inplace=False)
        (dropout_3): Dropout(p=0.1, inplace=False)
        (attn_1): MultiHeadAttention(
          (q_linear): Linear(in_features=512, out_features=512, bias=True)
          (k_linear): Linear(in_features=512, out_features=512, bias=True)
          (v_linear): Linear(in_features=512, out_features=512, bias=True)
          (dropout): Dropout(p=0.1, inplace=False)
          (out): Linear(in_features=512, out_features=512, bias=True)
        )
        (attn_2): MultiHeadAttention(
          (q_linear): Linear(in_features=512, out_features=512, bias=True)
          (k_linear): Linear(in_features=512, out_features=512, bias=True)
          (v_linear): Linear(in_features=512, out_features=512, bias=True)
          (dropout): Dropout(p=0.1, inplace=False)
          (out): Linear(in_features=512, out_features=512, bias=True)
        )
        (ff): FeedForward(
          (linear_1): Linear(in_features=512, out_features=2048, bias=True)
          (dropout): Dropout(p=0.1, inplace=False)
          (linear_2): Linear(in_features=2048, out_features=512, bias=True)
        )
      )
      (5): DecoderLayer(
        (norm_1): Norm()
        (norm_2): Norm()
        (norm_3): Norm()
        (dropout_1): Dropout(p=0.1, inplace=False)
        (dropout_2): Dropout(p=0.1, inplace=False)
        (dropout_3): Dropout(p=0.1, inplace=False)
        (attn_1): MultiHeadAttention(
          (q_linear): Linear(in_features=512, out_features=512, bias=True)
          (k_linear): Linear(in_features=512, out_features=512, bias=True)
          (v_linear): Linear(in_features=512, out_features=512, bias=True)
          (dropout): Dropout(p=0.1, inplace=False)
          (out): Linear(in_features=512, out_features=512, bias=True)
        )
        (attn_2): MultiHeadAttention(
          (q_linear): Linear(in_features=512, out_features=512, bias=True)
          (k_linear): Linear(in_features=512, out_features=512, bias=True)
          (v_linear): Linear(in_features=512, out_features=512, bias=True)
          (dropout): Dropout(p=0.1, inplace=False)
          (out): Linear(in_features=512, out_features=512, bias=True)
        )
        (ff): FeedForward(
          (linear_1): Linear(in_features=512, out_features=2048, bias=True)
          (dropout): Dropout(p=0.1, inplace=False)
          (linear_2): Linear(in_features=2048, out_features=512, bias=True)
        )
      )
    )
    (norm): Norm()
  )
  (out): Linear(in_features=512, out_features=12179, bias=True)
)
[Thu, 14 Dec 2023 23:09:01 INFO] Encoder: 25543168
[Thu, 14 Dec 2023 23:09:01 INFO] Decoder: 31460864
[Thu, 14 Dec 2023 23:09:01 INFO] * Number of parameters: 57004032
[Thu, 14 Dec 2023 23:09:01 INFO] Starting training on cuda
[Thu, 14 Dec 2023 23:10:11 INFO] epoch: 000 - iter: 00200 - train loss: 3.2173 - time elapsed/per batch: 70.1848 0.3509
[Thu, 14 Dec 2023 23:11:20 INFO] epoch: 000 - iter: 00400 - train loss: 2.8215 - time elapsed/per batch: 69.6786 0.3484
…
